AI Lunar Lander/checkpoint.pth (torch, 22566 bytes, 6 tensors)

fcl.weight f4 [64, 8]
0.11653303 0.5354491 0.075794466 -0.11046133 -0.20615782 -0.5106166 -0.021191787 0.2853911
1.351604 -0.23712395 0.7952422 -0.30835223 0.7882075 0.3420727 0.033031564 0.5135545
-0.06099495 -0.18486373 -0.05459927 -0.2026882 -0.63839555 -0.23981553 -0.2972331 0.27658856
-0.46130696 -0.70846754 -0.69394547 -1.0210143 0.31342345 -0.24478434 0.25100598 0.069545805
0.24367012 -0.06687144 0.149022 -0.1384176 -0.16455296 1.0506568 -0.091853656 -0.7413833
0.1884929 0.44385135 0.73572904 0.7081169 -0.7522763 -0.014371284 -0.08390339 -0.8309231
0.20388512 -0.9724767 -0.6087079 -0.23698874 0.2053586 0.9412969 -0.04722696 0.59900296
0.42191547 -0.95261854 0.52646327 -0.85080993 -0.275151 -0.3564971 0.115273155 0.060098186
0.66505915 -0.3266228 1.0538435 -0.11969559 -1.2078552 -0.42928505 0.19209641 0.11984029
0.44552815 -0.72757673 -0.21683834 -0.7723869 -0.04098257 0.40181148 0.09836962 0.59275496
-0.37118468 -0.6730102 -0.5765666 -0.9415934 0.41589817 -0.43635973 0.31843525 -0.31065422
-0.3072718 0.80970186 -0.0072785057 -0.86026865 1.5757543 0.9492012 -0.6590929 0.20117843
0.57962275 0.7337251 -0.69178647 -1.5706328 -0.75339234 -0.04866714 -0.63544714 -0.011655325
0.10123166 -0.9158874 -0.12776156 -1.1693225 -0.3903214 -0.31874907 -0.07175545 0.12552011
-0.0016803867 -0.9736967 -0.5141297 -0.9982115 0.42288268 -0.18741049 -0.3452507 -0.30526134
0.5976264 -0.7133964 0.12438418 -0.74989563 -0.9145996 -0.25733787 0.0056075263 -0.4336605
0.06109106 -0.06341616 1.5682878 -0.36303794 0.0339008 0.93693745 0.0064579975 -0.3979557
-0.20167384 -0.97252107 -0.14182998 -0.7814441 -0.16692038 -0.30115673 0.24296312 -0.29253685
0.004489833 0.8505618 0.27377477 1.4756272 -0.86484474 -0.048594262 -0.2810448 -0.83561647
0.07481875 -0.31582826 0.505984 -0.9986452 0.7102952 0.73037064 0.38817784 -0.20373373
1.1814581 -0.23934127 0.710607 -0.893211 0.48524967 0.36626345 -0.3174858 0.3072122
0.70351964 -0.44901022 -0.4139489 -0.49849975 2.6637573 -0.09953683 -0.031234546 0.36404082
-0.035953373 0.511664 -0.54794526 -1.5195233 0.0257273 0.23397219 -0.073901705 0.079851255
0.07438356 -0.14108615 1.1950291 -1.4869744 -0.75283587 -0.47120935 0.20248567 0.47504315
0.4969653 -0.028159449 0.51933557 0.81195694 -0.39029062 -0.42120808 0.29421705 0.4837133
0.75898427 0.10490728 -0.26196238 2.7976065 -1.6890508 -0.16693959 -1.1533992 0.37047935
-0.052274667 -0.31495532 -0.43302017 2.3255558 0.35940334 -0.39837965 -0.10258422 0.73298836
0.03470792 -0.4734082 0.23334408 -0.97161424 0.23009552 -0.0029129437 -0.9004992 -0.15216734
0.0141396625 0.27950826 -0.06858296 0.06203569 -0.09131033 -0.7995044 -0.7494637 0.5675981
0.053487856 0.23146726 -0.3885676 -0.40752637 0.20709425 -0.9167696 -0.85476255 -0.87110996
-0.7785421 -0.43395883 -0.55355585 -0.6939762 0.41738513 0.08100498 -0.32962838 0.25540072
0.102181144 0.2769721 -0.3432256 -1.2023638 -0.020255916 -0.9256687 -0.094267674 -0.1555242
00000000: dfa8 ee3d 3113 093f 213a 9b3d 8d39 e2bd
00000010: 091b 53be c5b7 02bf 669a adbc c81e 923e
00000020: 5c01 ad3f 9fd0 72be fe94 4b3f 58e0 9dbe
00000030: f7c7 493f 2724 af3e 1b4c 073d 4f78 033f
00000040: d7d5 79bd eb4c 3dbe 7ca3 5fbd 7f8d 4fbe
00000050: e46d 23bf 3492 75be f02e 98be 049d 8d3e
00000060: 6d30 ecbe 215e 35bf 69a6 31bf 99b0 82bf
00000070: 0a79 a03e bfa8 7abe db83 803e 086e 8e3d
00000080: a984 793e e5f3 88bd 3999 183e 58bd 0dbe
00000090: 9280 28be ec7b 863f c51d bcbd 4ccb 3dbf
000000a0: 4804 413e 7c40 e33e bd58 3c3f 2647 353f
000000b0: 2e95 40bf 8975 6bbc 8ad5 abbd 60b7 54bf
000000c0: 43c7 503e 3cf4 78bf 48d4 1bbf 2dad 72be
000000d0: 8649 523e d5f8 703f 0f71 41bd 4258 193f
000000e0: 4e05 d83e cfde 73bf 4cc6 063f aece 59bf
000000f0: 98e0 8cbe ca86 b6be 5514 ec3d 8429 763d
00000100: 5141 2a3f 1b3b a7be 58e4 863f f622 f5bd
00000110: 009b 9abf 40cb dbbe ecb4 443e d36e f53d
00000120: 441c e43e 7842 3abf df0a 5ebe 26bb 45bf
00000130: 57dd 27bd 3cba cd3e 0376 c93d cabe 173f
00000140: eb0b bebe 654a 2cbf de99 13bf 440c 71bf
00000150: 9bf0 d43e 8b6a dfbe f209 a33e 120e 9fbe
00000160: bb52 9dbe 9f48 4f3f 8880 eebb 913a 5cbf
00000170: 51b2 c93f dafe 723f 50ba 28bf b801 4e3e
00000180: 2862 143f 68d5 3b3f eb18 31bf 7f0a c9bf
00000190: 52de 40bf 3257 47bd aaac 22bf faf5 3ebc
000001a0: 8b52 cf3d 9977 6abf edd3 02be 5cac 95bf
000001b0: 35d8 c7be 1433 a3be 85f4 92bd 5888 003e
000001c0: 6c40 dcba 3044 79bf 019e 03bf ca8a 7fbf
000001d0: 1484 d83e 89e8 3fbe b3c4 b0be 374b 9cbe
000001e0: 0bfe 183f 25a1 36bf 22bd fe3d 29f9 3fbf
000001f0: 3323 6abf cac1 83be 57bf b73b c008 debe
00000200: 9f3a 7a3d 55e0 81bd a8bd c83f 1ce0 b9be
00000210: 91db 0a3d 22db 6f3f 9c9d d33b d9c0 cbbe
00000220: 9683 4ebe 24f7 78bf e13b 11be b80c 48bf
00000230: 2ded 2abe 3731 9abe 53cb 783e 64c7 95be
00000240: 731f 933b 6bbe 593f 352c 8c3e 5ae1 bc3f
00000250: 7766 5dbf c70a 47bd 1be5 8fbe f6ea 55bf
00000260: 933a 993d 3eb4 a1be 2b88 013f 36a7 7fbf
00000270: e8d5 353f 92f9 3a3f 3fbf c63e 939f 50be
00000280: 053a 973f e115 75be 57ea 353f 7aa9 64bf
00000290: a572 f83e e286 bb3e 808d a2be eb4a 9d3e
000002a0: dd19 343f abe4 e5be 1cf1 d3be 5c3b ffbe
000002b0: 007b 2a40 f7d9 cbbd 97df ffbc 8f63 ba3e
000002c0: d843 13bd 69fc 023f 2446 0cbf bd7f c2bf
000002d0: 0fc2 d23c 6896 6f3e c759 97bd 0e89 a33d
000002e0: 6856 983d e378 10be b7f6 983f 2d55 bebf
000002f0: dab9 40bf 5a42 f1be 6758 4f3e db38 f33e
00000300: 3c72 fe3e a5ae e6bc 2df3 043f 69dc 4f3f
00000310: 2cd4 c7be 96a8 d7be 9ea3 963e 45a9 f73e
00000320: cb4c 423f a1d9 d63d ef1f 86be fc0b 3340
00000330: d132 d8bf 36f2 2abe 96a2 93bf 78af bd3e
00000340: f61d 56bd d341 a1be d2b4 ddbe e8d5 1440
00000350: b703 b83e 6bf8 cbbe ad17 d2bd 20a5 3b3f
00000360: e429 0e3d 8f62 f2be c0f1 6e3e b6bb 78bf
00000370: 299e 6b3e 16e7 3ebb 1e87 66bf c1d1 1bbe
00000380: 0baa 673c b51b 8f3e 3975 8cbd 2319 7e3d
00000390: e900 bbbd 52ac 4cbf dadc 3fbf 1c4e 113f
000003a0: 1516 5b3d c105 6d3e 55f2 c6be 4ca7 d0be
000003b0: 8410 543e 6ab1 6abf b8d1 5abf 1001 5fbf
000003c0: 894e 47bf da2f debe d6b5 0dbf 6da8 31bf
000003d0: 81b3 d53e f0e5 a53d 0dc5 a8be e2c3 823e
000003e0: 5944 d13d 49cf 8d3e 44bb afbe 0fe7 99bf
000003f0: bcef a5bc a0f8 6cbf 690f c1bd bc41 1fbe

fcl.bias f4 [64]
0.7162471 -0.044796523 0.0039078784 -0.36556688 0.0240397 0.1164743 0.3305683 -0.21270818
-0.2530655 0.4157083 0.1163098 0.44709444 0.30122524 -0.25603586 0.3325592 -0.1575905
0.06425688 0.28864464 0.36667994 -0.08567049 -0.08976593 0.19899756 0.2755641 0.019925613
-0.2970193 0.39816827 -0.356591 0.41444486 -0.42660543 -0.10023562 0.022139555 0.59416175
0.53201634 0.18056595 0.38504508 0.1369431 -0.0536144 -0.07210467 -0.27928555 0.16588482
0.43593282 0.37861648 -0.07444418 -0.31940836 -0.05222338 0.1777794 -0.07375402 0.4848794
0.531135 0.35826933 -0.039772496 -0.59963745 -0.35068724 -0.18023446 0.20639542 0.21538432
-0.20907922 -0.40185812 -0.21540354 -0.26176098 -0.24315807 0.19245183 0.3826004 -0.30680603
00000000: f85b 373f 8f7c 37bd a90d 803b 952b bbbe
00000010: e8ee c43c 148a ee3d 4040 a93e 2cd0 59be
00000020: cd91 81be b8d7 d43e d533 ee3d 90e9 e43e
00000030: 323a 9a3e 2217 83be 3345 aa3e 675f 21be
00000040: 1c99 833d 3bc9 933e 79bd bb3e 0374 afbd
00000050: 33d7 b7bd 04c6 4b3e bd16 8d3e 0a3b a33c
00000060: ea12 98be b6dc cb3e 1893 b6be 1e32 d43e
00000070: 076c dabe 5548 cdbd 035e b53c fc1a 183f
00000080: 3932 083f 48e6 383e a124 c53e d03a 0c3e
00000090: c69a 5bbd 9dab 93bd 84fe 8ebe b6dd 293e
000000a0: 9632 df3e 05da c13e 3176 98bd 7e89 a3be
000000b0: 2fe8 55bd ce0b 363e 590c 97bd 1d42 f83e
000000c0: 77f8 073f 146f b73e 7ce8 22bd d781 19bf
000000d0: 478d b3be 628f 38be 5259 533e b58d 5c3e
000000e0: dd18 56be 59c0 cdbe bf92 5cbe 8905 86be
000000f0: 6efe 78be 1812 453e 33e4 c33e ae15 9dbe

fc2.weight f4 [64, 64]
-0.4873673 -0.012279153 0.21867456 -0.43949395 0.23958775 -0.49525768 0.08169533 0.4021457
0.38061544 0.0949244 0.17855252 -0.0010546971 0.03748144 0.21225634 0.35320696 0.21954083
-0.23257309 0.27754915 0.7581422 0.50348175 -0.46186283 0.08841089 0.086303726 -0.028588213
0.31917053 0.22117276 -0.09423886 -0.124892384 0.23290119 -0.36838627 0.40731737 0.13672058
0.18626513 0.27645427 0.2665737 -0.579988 -0.0034593095 -0.3937824 -0.6300368 -0.7035294
0.15975992 0.20762195 -1.9480422 0.44080532 -0.13460006 0.6209212 0.07931516 -0.24274611
0.10116392 0.15252307 0.43068996 0.8778291 -0.557183 0.09852016 -0.052483954 -0.48253408
0.4996154 -0.47443092 0.16029233 0.0019499033 0.10101515 -0.39466414 -0.119728595 0.41969237
0.29880357 0.56279856 0.15415724 -0.32788035 -1.1000544 -0.02796503 -0.7547571 -0.11181427
-0.011575652 -0.22153862 -0.59393215 0.2391462 0.4724788 -0.22725776 -0.20763536 0.36695635
-0.4241275 -0.10794106 0.057534885 -0.730246 0.019899463 -0.14296591 -0.11735092 0.09359475
0.050701305 0.19168948 0.6614407 0.96869105 0.3909533 0.4769879 -0.15463825 0.55293286
0.1259987 0.25174752 -0.075103134 0.11209085 0.03280651 0.49721754 0.17124783 0.23088463
0.5812351 0.19603086 0.7009183 -0.4537094 -0.5272183 -0.28325623 -0.027507314 0.14777538
-0.046230994 0.03786064 0.34114546 -3.6933265 -0.35506293 -0.2815502 -0.7156494 0.2517658
-0.1860799 0.08157451 -1.1185706 0.3693034 0.120419785 -0.009512898 0.1308024 0.012799625
-0.050339602 0.4450081 0.2905471 0.07904855 -0.1587041 0.2547683 0.018220235 0.13043231
0.0697518 -0.015002069 -0.14518955 0.5734599 0.23312968 -0.05753718 -0.062045723 0.1646758
-1.0389465 -0.07063211 0.44479212 0.12660535 0.20350227 0.07371699 0.17883278 -0.5152458
-0.06671921 -0.02565941 0.5311639 0.16533655 0.29385108 0.30206653 0.6641275 0.1745503
-0.38525686 -0.09701505 0.20110908 0.2664084 -0.069527715 -0.48436624 0.63435876 0.2825804
-0.08266929 -0.2548854 -0.3076214 -0.16817959 -0.03046272 0.59935886 -0.5854541 0.17401549
0.04402716 0.26259255 0.12513596 0.120411 0.17197745 0.05738089 -0.13725361 0.6228664
0.069304585 -0.50233775 0.047026686 0.12862787 -0.105219364 0.48307407 0.11050361 0.16028988
-0.51795995 0.70638084 0.36594644 0.48393506 0.24233612 0.10798804 0.10628979 0.3967292
0.30053863 0.17898291 -0.19123645 0.3915763 0.21950491 0.46558622 -0.2443994 0.551957
-0.8445696 -0.19291791 0.43936905 0.050753005 0.3665818 -0.08130695 -0.13044459 -0.32819775
0.51773626 -0.08890308 0.7379883 -0.34535357 0.40123424 0.2912451 0.4118642 -0.049105357
-0.07949275 -0.056987774 0.20416147 -0.18233623 0.19670323 -1.2361696 0.3572705 0.44990057
0.46169415 0.027510721 -1.3230351 0.33971378 0.08212911 0.39396167 -0.84416485 0.04200136
0.21285915 0.32417798 0.34376067 0.39998493 0.30028975 0.306108 0.34772915 0.19414146
0.64553535 -1.4458814 0.4416768 0.5986029 0.5775962 0.4106148 0.015093252 0.50073516
00000000: 3588 f9be 802e 49bc 39ec 5f3e 5a05 e1be
00000010: 7e56 753e 6a92 fdbe e24f a73d 0be6 cd3e
00000020: 07e0 c23e b967 c23d 79d6 363e c33d 8aba
00000030: 2386 193d ba59 593e 8bd7 b43e 50cf 603e
00000040: a427 6ebe ec1a 8e3e 9b15 423f 2ee4 003f
00000050: 4979 ecbe c510 b53d 02c0 b03d d431 eabc
00000060: 526a a33e 1d7b 623e 4e00 c1bd 94c7 ffbd
00000070: a67d 6e3e 209d bcbe e78b d03e 7b00 0c3e
00000080: 49bc 3e3e 6a8b 8d3e 597c 883e 187a 14bf
00000090: 95b5 62bb d99d c9be 174a 21bf 811a 34bf
000000a0: 1b98 233e d99a 543e 7259 f9bf 3cb1 e13e
000000b0: 99d4 09be b1f4 1e3f fd6f a23d 7092 78be
000000c0: 072f cf3d 022f 1c3e 6583 dc3e 68b9 603f
000000d0: 8ca3 0ebf f0c4 c93d 6af9 56bd b50e f7be
000000e0: 97cd ff3e 9ce8 f2be ac23 243e e693 ff3a
000000f0: 08e1 ce3d 6b11 cabe 4434 f5bd ebe1 d63e
00000100: c8fc 983e 9113 103f 65db 1d3e efdf a7be
00000110: 95ce 8cbf eb16 e5bc c337 41bf e1fe e4bd
00000120: cea7 3dbc 05db 62be f00b 18bf bee2 743e
00000130: bee8 f13e 42b6 68be 5d9e 54be b4e1 bb3e
00000140: 3d27 d9be 3410 ddbd b3a9 6b3d 67f1 3abf
00000150: 3304 a33c a865 12be ae55 f0bd 9bae bf3d
00000160: 2cac 4f3d 3f4a 443e 2d54 293f 23fc 773f
00000170: 082b c83e c237 f43e 7d59 1ebe 028d 0d3f
00000180: ce05 013e 0de5 803e accf 99bd e38f e53d
00000190: 1e60 063d 4c93 fe3e 975b 2f3e 056d 6c3e
000001a0: d3cb 143f 50bc 483e 626f 333f 994c e8be
000001b0: c7f7 06bf f606 91be 0557 e1bc 6e52 173e
000001c0: b65c 3dbd c213 1b3d 9eaa ae3e 765f 6cc0
000001d0: cfca b5be 5927 90be cd34 37bf 72e7 803e
000001e0: bb8b 3ebe 8910 a73d 522d 8fbf 5615 bd3e
000001f0: a69e f63d fcdb 1bbc 10f1 053e 85b5 513c
00000200: e630 4ebd 1ad8 e33e 97c2 943e 35e4 a13d
00000210: 5483 22be fe70 823e 9a42 953c 0c90 053e
00000220: 08da 8e3d 3dcb 75bc 92ac 14be 45ce 123f
00000230: 8cb9 6e3e 1bac 6bbd a823 7ebd c6a0 283e
00000240: 33fc 84bf 91a7 90bd cbbb e33e d5a4 013e
00000250: e662 503e eff8 963d f11f 373e 26e7 03bf
00000260: 15a4 88bd af33 d2bc 5bfa 073f fc4d 293e
00000270: a673 963e 77a8 9a3e 4304 2a3f 50bd 323e
00000280: 6340 c5be d4af c6bd 8aef 4d3e af66 883e
00000290: 8c64 8ebd dafe f7be 5665 223f 61ae 903e
000002a0: 844e a9bd 5780 82be 8d80 9dbe 4537 2cbe
000002b0: f48c f9bc 956f 193f 52e0 15bf 1e31 323e
000002c0: d355 343d 8872 863e a423 003e 0b9a f63d
000002d0: db1a 303e 3908 6b3d 368c 0cbe 2c74 1f3f
000002e0: 90ef 8d3d 3599 00bf 0e9f 403d 06b7 033e
000002f0: 407d d7bd 7c55 f73e b74f e23d 0823 243e
00000300: 0699 04bf 60d5 343f 555d bb3e 56c6 f73e
00000310: f626 783e d528 dd3d 76ae d93d 1720 cb3e
00000320: 33e0 993e 4c47 373e 7dd3 43be b07c c83e
00000330: e5c5 603e 5161 ee3e d643 7abe 0e4d 0d3f
00000340: b735 58bf 468c 45be fbf4 e03e 62e2 4f3d
00000350: 9cb0 bb3e 4284 a6bd 4493 05be 8909 a8be
00000360: 5d8a 043f d112 b6bd cdec 3c3f 2fd2 b0be
00000370: 936e cd3e 141e 953e dddf d23e b322 49bd
00000380: 18cd a2bd 036c 69bd b40f 513e 59b6 3abe
00000390: 926c 493e ce3a 9ebf 29ec b63e 5e59 e63e
000003a0: 2d63 ec3e 2a5e e13c 3759 a9bf f7ee ad3e
000003b0: 4f33 a83d 58b5 c93e 301b 58bf 9e09 2c3d
000003c0: c0f7 593e a8fa a53e 6601 b03e d3ca cc3e
000003d0: 94bf 993e 30ba 9c3e 8e09 b23e 05cd 463e
000003e0: ce41 253f a412 b9bf 7623 e23e 0a3e 193f
000003f0: 58dd 133f 1a3c d23e b049 773c 2e30 003f

fc2.bias f4 [64]
0.086174995 0.28467885 -0.023245903 -0.09874191 0.04959487 0.18115479 -0.07498112 0.2575484
-0.09071382 0.00040808925 -0.19083771 -0.093841396 -0.0660501 -0.39146975 -0.58561635 0.65970814
-0.41526756 -0.07053789 0.27692106 -0.017074864 -0.015070493 0.24730918 0.58451736 0.4906851
0.02997346 0.41795757 -0.027693622 -0.04007912 0.05081556 0.040839463 0.13639644 -0.07945619
0.26850328 -0.060970247 -0.13233706 0.11094457 0.46363044 -0.10288887 -0.026756333 0.085503615
-0.16289395 -0.049317487 -0.12259428 -0.05192229 0.12626328 0.11513718 -0.14382023 0.5000668
0.1254987 -0.046384238 -0.22272958 0.29824108 -0.059468135 -0.020427186 -0.14666972 -0.40962365
-0.09511244 0.0926549 -0.13336726 0.11398095 -0.0027891994 -0.033690684 -0.14750755 0.12466782
00000000: 847c b03d 6dc1 913e 316e bebc 3339 cabd
00000010: fe23 4b3d a480 393e b48f 99bd 62dd 833e
00000020: 2bc8 b9bd d0f4 d539 f66a 43be eb2f c0bd
00000030: 4645 87bd b96e c8be f4ea 15bf a2e2 283f
00000040: f39d d4be 2b76 90bd 99c8 8d3e 96e0 8bbc
00000050: 3bea 76bc 9e3e 7d3e eea2 153f 143b fb3e
00000060: e78a f53c 89fe d53e bcdd e2bc 012a 24bd
00000070: fa23 503d 4847 273d 82ab 0b3e edb9 a2bd
00000080: 4379 893e f0bb 79bd 5e83 07be e836 e33d
00000090: f860 ed3e 66b7 d2bd 1930 dbbc 851c af3d
000000a0: accd 26be 2201 4abd b612 fbbd 78ac 54bd
000000b0: 294b 013e 0bcd eb3d 9c45 13be 6104 003f
000000c0: bb82 003e 66fd 3dbd 3913 64be 0eb3 983e
000000d0: dc94 73bd ea56 a7bc 9630 16be 31ba d1be
000000e0: 50ca c2bd dac1 bd3d 6d91 08be d86e e93d
000000f0: 00cb 36bb 3eff 09bd 380c 17be d851 ff3d

fc3.weight f4 [4, 64]
0.23008566 -0.42108044 -0.29889494 -0.45660388 -0.2486698 1.5119185 -0.006320551 2.133139
-0.6476581 -0.39923948 -0.45193282 -0.42344028 -0.42700556 -0.78676504 0.01638046 2.8358092
-0.79609615 -0.30172014 1.9692712 -0.57134163 -0.37805533 -0.09403109 3.204766 1.5641993
-0.31298 -0.82437754 -0.35538122 -0.39012983 0.1813985 -0.48767814 0.5204348 -0.43935868
0.17430075 -0.31733683 -1.0781307 -0.4948443 0.120500706 -0.37637135 -0.22638929 -0.5353393
0.033655956 -0.3051213 -0.06707907 -1.1946466 0.88825727 -0.17379221 -0.28419256 1.7583725
-0.47994816 -0.40400845 -0.30792964 0.29467702 -0.25192082 -0.5650582 -0.3337817 -0.15307274
-0.31605056 -0.4445477 -0.6192439 -0.09967269 -0.042367056 -0.49829608 -0.11351555 1.9295238
-0.642575 -0.19616684 -0.40504506 -0.3871705 -0.2217179 1.4606503 0.056594174 1.9537364
-0.40981445 -0.047961403 -0.4407992 -0.3510486 -0.4823361 -0.8093885 0.085645355 2.7754588
0.22634833 -0.35775524 1.6778994 -0.16721742 -0.45794135 -0.2564861 3.7032561 1.5559392
-0.4365196 -0.5625402 -0.5625222 -0.47899783 0.14207819 -0.4496251 0.61757946 -0.36890924
-0.16384979 -0.419275 -0.25499713 -0.44377354 0.4595056 -0.29534313 -0.41887826 -0.73092306
0.10003412 -0.4861919 0.11953427 -0.6616078 1.070363 -0.41411173 -0.43179435 1.9341984
-0.54252154 -0.81177545 -0.36636797 -0.18135463 -0.28224438 -0.08968985 -0.25663564 0.07730707
-0.430418 -0.479729 -0.34386018 0.30254015 -0.036656335 -0.4104783 0.044248242 2.0112207
-0.7493395 0.21299855 0.10842464 -0.3159462 -0.5501859 2.4321523 0.03603177 2.2737234
-0.16465451 -1.2694123 -0.49159303 -0.5781844 -0.2718438 0.067678936 -1.0047759 2.5309367
-0.5448364 -0.39948052 1.7547262 -0.6979615 -0.489409 -0.63485855 2.2222545 1.3607426
-0.2307148 -0.73469836 -0.498675 -0.35325575 -0.5124001 -0.44197384 1.5486073 -0.42063472
0.6912791 -0.15691651 0.16810201 -0.47777495 -0.60476 -0.6799682 -0.3824654 -0.16809596
0.039676353 -0.27942258 0.10073069 -0.4931631 0.64805037 -0.50752896 -0.28228778 1.420523
-0.32554054 -0.20428537 -0.5182383 -0.9865804 -0.53206277 -0.5733865 0.092390865 -1.1201929
-0.33734313 -0.6229717 -0.40554348 0.28290084 0.022981271 -0.3632379 0.07387414 1.8732096
0.42806926 -0.86584586 -0.21810883 -0.42507944 -0.5735442 1.7055532 -0.0995899 2.1476102
-0.6438208 -0.49743092 -0.46129137 -0.473467 -0.34054756 -0.3408839 -0.8412817 2.764637
0.046233147 -0.38324746 2.2340875 -0.56242454 -0.25679064 -0.45606485 3.2926092 1.5615396
-0.27619764 -0.696227 -0.40284774 -0.26193872 0.4700928 -0.36061588 0.01628498 -0.3964387
0.71562743 -0.36802968 -1.0593616 -0.105697505 -0.4958318 -0.5905677 -0.44533452 -0.19906089
-0.031205108 -0.31791648 -0.09180762 -1.0387812 0.75267464 -0.42538008 -0.46346772 1.2986311
-0.32229632 -0.57234615 -0.49403316 0.58633786 -0.54511297 -0.031419512 -0.4251516 -0.8374437
-0.41773453 -0.32080573 -0.08489049 -0.055242375 0.09662929 -0.40838364 -0.083517976 1.9284835
00000000: 939b 6b3e db97 d7be c208 99be fcc7 e9be
00000010: 4ca3 7ebe 8c86 c13f a01c cfbb 5985 0840
00000020: eccc 25bf 1e69 ccbe bd63 e7be 2acd d8be
00000030: 79a0 dabe 6f69 49bf 5030 863c e67d 3540
00000040: f5cc 4bbf 107b 9abe 1411 fc3f 7243 12bf
00000050: 7890 c1be 5f93 c0bd e31a 4d40 af37 c83f
00000060: ea3e a0be 680a 53bf 87f4 b5be 19bf c7be
00000070: 87c0 393e f3b0 f9be 373b 053f 9ff3 e0be
00000080: e57b 323e f979 a2be 3000 8abf 3b5c fdbe
00000090: 13c9 f63d bfb3 c0be 98d2 67be ff0b 09bf
000000a0: d4da 093d dc38 9cbe c060 89bd 2eea 98bf
000000b0: d464 633f 96f6 31be b081 91be 5a12 e13f
000000c0: c4bb f5be 32da cebe f4a8 9dbe e8df 963e
000000d0: c4fb 80be a7a7 10bf 6fe5 aabe 1abf 1cbe
000000e0: 61d1 a1be c29b e3be c586 1ebf 3221 ccbd
000000f0: 1489 2dbd aa20 ffbe d77a e8bd a3fa f63f
00000100: cc7f 24bf f6df 48be 1162 cfbe 363b c6be
00000110: 040a 63be 97f6 ba3f 4bcf 673d 0914 fa3f
00000120: 33d3 d1be 2d73 44bd 6fb0 e1be a4bc b3be
00000130: c2f4 f6be 1634 4fbf d566 af3d 1ea1 3140
00000140: dbc7 673e b22b b7be 68c5 d63f 0b3b 2bbe
00000150: 4a77 eabe 2552 83be 2602 6d40 0429 c73f
00000160: 7f7f dfbe a202 10bf 7401 10bf 343f f5be
00000170: f27c 113e 4335 e6be b019 1e3f ace1 bcbe
00000180: 3dc8 27be 36ab d6be fc8e 82be 4936 e3be
00000190: 5144 eb3e 3737 97be 3677 d6be c61d 3bbf
000001a0: b0de cc3d 25ee f8be 62ce f43d 215f 29bf
000001b0: a801 893f 7406 d4be 2614 ddbe d093 f73f
000001c0: b1e2 0abf 84d0 4fbf 9594 bbbe 07b5 39be
000001d0: 5682 90be 50af b7bd bf65 83be 2b53 9e3d
000001e0: c05f dcbe 0a9f f5be 710e b0be 8be6 9a3e
000001f0: f424 16bd 362a d2be a53d 353d d7b7 0040
00000200: b7d4 3fbf 4b1c 5a3e bd0d de3d b3c3 a1be
00000210: fcd8 0cbf 62a8 1b40 0d96 133d af84 1140
00000220: 319b 28be 1a7c a2bf 15b2 fbbe e503 14bf
00000230: 1c2f 8bbe 419b 8a3d 7f9c 80bf defa 2140
00000240: 667a 0bbf b688 ccbe de9a e03f 9bad 32bf
00000250: d193 fabe 1786 22bf 6b39 0e40 d02c ae3f
00000260: 8040 6cbe 3115 3cbf 5452 ffbe f0dd b4be
00000270: a72c 03bf 654a e2be c438 c63f 6f5d d7be
00000280: abf7 303f b9ae 20be ef22 2c3e eb9e f4be
00000290: 8dd1 1abf 6512 2ebf 81d2 c3be 5921 2cbe
000002a0: ac83 223d 7a10 8fbe e44b ce3d e07f fcbe
000002b0: a1e6 253f 6bed 01bf 0688 90be b3d3 b53f
000002c0: 40ad a6be 2f30 51be 44ab 04bf 8890 7cbf
000002d0: 4435 08bf 75c9 12bf 6c37 bd3d 7b62 8fbf
000002e0: 3db8 acbe 137b 1fbf 65a3 cfbe 61d8 903e
000002f0: 3843 bc3c 51fa b9be 534b 973d 55c5 ef3f
00000300: e52b db3e 13a8 5dbf ec57 5fbe 03a4 d9be
00000310: cbd3 12bf 914f da3f caf5 cbbd 7272 0940
00000320: 71d1 24bf 44af febe 622e ecbe 446a f2be
00000330: 405c aebe 5688 aebe 3d5e 57bf d0ef 3040
00000340: f85e 3d3d 0339 c4be 4afb 0e40 0efb 0fbf
00000350: 107a 83be 5581 e9be 1cba 5240 88e0 c73f
00000360: c769 8dbe ef3b 32bf 0f42 cebe d51c 86be
00000370: 01b0 f03e a5a2 b8be 1468 853c 03fa cabe
00000380: 5c33 373f 636e bcbe 2999 87bf ef77 d8bd
00000390: aadd fdbe 722f 17bf e302 e4be 9ed6 4bbe
000003a0: dba1 ffbc f3c5 a2be a205 bcbd c8f6 84bf
000003b0: 49af 403f 6bcb d9be a44b edbe 8b39 a63f
000003c0: 0604 a5be 4785 12bf eaf1 fcbe 3d1a 163f
000003d0: 868c 0bbf bfb1 00bd 78ad d9be b662 56bf
000003e0: 4de1 d5be a640 a4be 11db adbd d445 62bd
000003f0: 94e5 c53d a917 d1be 790b abbd 8cd8 f63f

fc3.bias f4 [4]
-0.00894515 -0.050054923 0.18045773 0.33732018
00000000: ae8e 12bc 6406 4dbd e9c9 383e 3bb5 ac3e
